pretrained_model.pth (torch, 3352 bytes, 3 tensors)

fc1.weight f4 [20, 13]
0	0xbf835d9d	-1.0262944
1	0x3d9270e4	0.071504384
2	0x3f2b4c0d	0.6691292
3	0xbf911889	-1.1335613
4	0xbf7e0cf5	-0.9923852
5	0xbf31d0db	-0.69459313
6	0xbeac0e34	-0.33604586
7	0x3f4950f8	0.78639174
8	0x3f44de90	0.76902103
9	0xbd287ae1	-0.04113281
10	0xbfa21d22	-1.2665141
11	0x3e8ad2d5	0.27113977
12	0x3ee39e8d	0.44456902
13	0x3f337656	0.7010244
14	0x3f89c6e6	1.0763824
15	0x3fb6d9c5	1.4285208
16	0x3f0cc2e4	0.5498488
17	0x3e795fc4	0.24352938
18	0x3de81586	0.1133223
19	0x3ef1e374	0.47243845
20	0xbf19d727	-0.6009392
21	0xbe4ba017	-0.19885288
22	0x3f92ee01	1.1478883
23	0x3ec982e7	0.39357683
24	0xbf0ce9eb	-0.5504443
25	0xbf303e65	-0.68845206
26	0xbf43a675	-0.7642587
27	0xbed07d1d	-0.40720454
28	0xbf1bbb88	-0.60833025
29	0x3fdf211b	1.7431978
30	0xbb8dc1d2	-0.0043260837
31	0x3f6419c0	0.8910179
32	0x3fa75569	1.307294
33	0xbe6c5306	-0.23078546
34	0x3fb1305f	1.3842887
35	0x3f4790fd	0.7795561
36	0x3e9f9675	0.31169477
37	0x3f3fe931	0.74965197
38	0xbfad51cb	-1.3540586
39	0x3fb5dd3c	1.420814
40	0xbf04a95b	-0.51820916
41	0xbf7309cb	-0.9493682
42	0xbfaafcc8	-1.3358393
43	0x3c19b826	0.009382283
44	0xbf12e1e1	-0.57375914
45	0xbf8b55d7	-1.0885571
46	0x3f2b5602	0.6692811
47	0xbf153b71	-0.58293825
48	0x3fab0dcc	1.3363585
49	0x3fd4d9fc	1.6629024
50	0xbfdf03ea	-1.742307
51	0xbf148e88	-0.58029985
52	0xbf63121d	-0.88699514
53	0xbdacd6f8	-0.084394395
54	0xbedf519c	-0.4361695
55	0xbe48666d	-0.19570322
56	0x3edcd3c5	0.43130317
57	0xbe280ce2	-0.16411164
58	0xbece6014	-0.40307677
59	0xbed81b1d	-0.42208186
60	0x3ed85c12	0.42257744
61	0x3d763f89	0.060119186
62	0xbe25241c	-0.16127056
63	0x3ee5f1cb	0.44911036
64	0xbd873fbb	-0.066039525
65	0x3f6101d3	0.8789341
66	0x3fd320cf	1.6494387
67	0x3f60678a	0.8765799
68	0x3f82a94f	1.0207919
69	0xbeb60dc9	-0.35557392
70	0x3f60f831	0.8787871
71	0xbe98a49e	-0.29813093
72	0x3ee60198	0.4492309
73	0x3eda0508	0.42581964
74	0xbf9cb9ed	-1.224424
75	0xbed4f25e	-0.4159116
76	0x3e10fadf	0.141582
77	0x3f4ae237	0.79251426
78	0xbfdb0565	-1.7111021
79	0xbf9d988e	-1.2312181
80	0x3e222f33	0.15838318
81	0x3ec3bbee	0.38229316
82	0xbfc05cd2	-1.5028327
83	0x3d19386a	0.037407316
84	0x3eb5cdb3	0.355085
85	0xbd845e27	-0.06463271
86	0x3f2ee68d	0.6832054
87	0xbf113ee1	-0.5673657
88	0xbfc36235	-1.5264345
89	0x3f14575e	0.5794581
90	0x3f9a341c	1.2047153
91	0x3f5f71b0	0.8728285
92	0xbfa92c48	-1.3216639
93	0x3e4e061c	0.20119518
94	0xbf65b835	-0.897342
95	0xbf56e21f	-0.83938783
96	0x3fb910d8	1.4458265
97	0xbd894b16	-0.06703775
98	0x3f24c763	0.6436674
99	0xbec372b7	-0.38173458
100	0x3f0e20fe	0.5551909
101	0xbef42376	-0.47683305
102	0xbf99d2bc	-1.2017436
103	0x3e5dc536	0.21657261
104	0x3ed4f9bc	0.41596782
105	0x3ec1da84	0.37862027
106	0x3f3b7543	0.732258
107	0xbf674403	-0.9033815
108	0x3f91caf1	1.1390058
109	0x3ed0a77c	0.4075278
110	0x3e3bcf8e	0.18340895
111	0xbfab0c8b	-1.3363203
112	0xbf95d282	-1.1704867
113	0xbee5b6c5	-0.44866005
114	0x3f230582	0.6368028
115	0xbe18c1fc	-0.14917749
116	0x3f26650c	0.64997935
117	0xbdc2ddeb	-0.09514984
118	0xbf535dc2	-0.8256494
119	0xbf9a19da	-1.2039139
120	0x3f42d575	0.7610696
121	0xbf1115a7	-0.56673664
122	0xbea15543	-0.31510362
123	0xbf18f6e7	-0.59751743
124	0x3f0a00ee	0.5390767
125	0xbd6674fb	-0.056263905
126	0xbf0b5d70	-0.5443945
127	0x3ef194ef	0.4718394
128	0xbfa3fcb8	-1.2811499
129	0xbf269b38	-0.65080595
130	0xbe015910	-0.12631631
131	0x3f30f33b	0.6912114
132	0xc01819ad	-2.3765671
133	0xbe4edfde	-0.20202586
134	0xbea7fd83	-0.32810602
135	0xbd1c8795	-0.03821524
136	0xbdd8d171	-0.10586823
137	0xbe924f75	-0.28576246
138	0x3f0bb28c	0.54569316
139	0x3ff2dfe5	1.8974577
140	0xbcd92f47	-0.026511801
141	0x3f3a66b8	0.72812986
142	0x3e1f9081	0.15582468
143	0x3d298d3c	0.041394457
144	0xbf2492fc	-0.6428678
145	0xbee11db1	-0.43967965
146	0xbf16a005	-0.5883792
147	0x3e11201b	0.14172404
148	0xbdd37d8d	-0.10326681
149	0xc02772ee	-2.6163898
150	0x3efeb2b3	0.49745712
151	0x3fbf5be6	1.494992
152	0x3f0f8b92	0.5607234
153	0x3f3205bf	0.6954002
154	0xbe95f596	-0.2928893
155	0xbef474f2	-0.47745472
156	0x3ed2b9da	0.41157418
157	0x3e9c7cc1	0.3056393
158	0x3fc36ca5	1.5267531
159	0xbda41d94	-0.08013454
160	0xbe67c7a2	-0.22634748
161	0x3e69ccea	0.22832075
162	0xbfcd57fc	-1.6042476
163	0xbf40c2db	-0.75297326
164	0xbde63a2b	-0.112415634
165	0xbe6c3244	-0.2306605
166	0xbf678db0	-0.9045057
167	0x3fb6ccad	1.4281212
168	0xbf594412	-0.8486949
169	0xbdbc5232	-0.09195365
170	0x3f8df474	1.1090226
171	0x3fa9f579	1.3278037
172	0x3fb86229	1.4404956
173	0xbe075ab0	-0.13218188
174	0xbc6f4c89	-0.01460565
175	0x3dd647d4	0.10462919
176	0xbf2400eb	-0.640639
177	0x3f776299	0.96634823
178	0xbe83febc	-0.25780284
179	0x3e78dbca	0.24302593
180	0x3fbfd4c8	1.4986811
181	0x401774c1	2.366501
182	0x3f29b63d	0.662937
183	0x3eb0b1e9	0.34510735
184	0x3f347761	0.7049466
185	0x3f4acaf1	0.79215914
186	0xbfa924d7	-1.3214368
187	0x3fe0d705	1.7565619
188	0xbf9fbfaf	-1.2480372
189	0x3e5b5906	0.21420678
190	0x3e5e7683	0.21724896
191	0x3eaf25d3	0.34208545
192	0xbebfa164	-0.3742782
193	0xbfdcb165	-1.7241637
194	0xbfddfc2f	-1.7342585
195	0x3f78fd9f	0.97261995
196	0xbf542c68	-0.8288026
197	0x3fa0e276	1.256911
198	0xbf27dfa7	-0.6557564
199	0x3f54d18d	0.8313225
200	0x3f7e76c6	0.99399984
201	0x3f4ef9d9	0.8084999
202	0xbe80ccf8	-0.2515638
203	0xbf34d6d8	-0.70640326
204	0x3eb9f005	0.36315933
205	0xbf23c892	-0.6397792
206	0x3f7ad950	0.9798784
207	0xbe866d6a	-0.2625535
208	0x3e28995e	0.16464755
209	0xbecff89f	-0.4061937
210	0xbeffd001	-0.49963382
211	0x3df7d174	0.12100497
212	0x3cb390b9	0.021919595
213	0x3f84cf3a	1.037574
214	0xbdf17eee	-0.11791788
215	0xbeee203b	-0.46508965
216	0x3f5ab302	0.85429394
217	0xbb96fb17	-0.004607569
218	0x3f83be4b	1.0292448
219	0x3f9f31ec	1.243711
220	0x3f1a0481	0.6016312
221	0xbfe29f68	-1.7704897
222	0xbfbbf361	-1.4683648
223	0xbe100b7c	-0.14066881
224	0x3e9062c2	0.28200346
225	0xbc9a9601	-0.018870356
226	0xbfc36081	-1.5263826
227	0xbf415040	-0.75513077
228	0x3c29f28d	0.01037277
229	0x3ee4eff3	0.44714317
230	0x3f4add7e	0.7924422
231	0x3f10ffd9	0.5664039
232	0x3f3f4790	0.7471857
233	0xc04a32f4	-3.15936
234	0x3f0d68ca	0.5523802
235	0x3ed4665a	0.41484338
236	0x3f5a62c9	0.85306984
237	0xbf892a4c	-1.0716033
238	0x3f3cf876	0.7381662
239	0xbf47b20d	-0.7800606
240	0xbf954215	-1.1660792
241	0xbfaca391	-1.3487417
242	0xbe5466b6	-0.20742306
243	0xbf200e0b	-0.6252143
244	0xbfdcab96	-1.7239864
245	0x3f319f04	0.69383264
246	0xbf983556	-1.1891277
247	0x3f48443d	0.78229123
248	0xbf7dca97	-0.9913725
249	0xbfd5b59e	-1.669605
250	0xbe34fcd7	-0.17674576
251	0xbe821fab	-0.25414786
252	0xbfa99aa6	-1.325032
253	0xc0014031	-2.019543
254	0x3fb374ca	1.4020016
255	0xbfe8f480	-1.8199615

fc1.bias f4 [20]
0	0xbf68f1fa	-0.90994227
1	0x3f5211d0	0.8205843
2	0xbf8bc7aa	-1.0920308
3	0x3f74632f	0.9546384
4	0x3d70f301	0.058825497
5	0xbfbb7b29	-1.464696
6	0x3e0c560f	0.13704704
7	0xbe45ea04	-0.19327551
8	0x3f0d6302	0.552292
9	0xbea894bf	-0.32925984
10	0x3f8be161	1.0928155
11	0x3fb4bfce	1.4121034
12	0x3e6b5288	0.22980702
13	0xbf01273b	-0.50450486
14	0x3f88c4a7	1.0685014
15	0x3f701147	0.93776363
16	0x3ea03fde	0.31298727
17	0xbf48ee24	-0.78488374
18	0xbfe0567c	-1.7526393
19	0xbf3b31dc	-0.73122954

fc2.weight f4 [1, 20]
0	0x4034602d	2.81837
1	0xc02ce29f	-2.7013319
2	0xc0620eeb	-3.5321605
3	0x407d4236	3.9571662
4	0x3fa4f2e8	1.2886629
5	0xc051eccc	-3.280078
6	0xc05936f5	-3.3939793
7	0xc039aa9b	-2.901038
8	0xc02fd2ea	-2.7472482
9	0x401f0cbf	2.485153
10	0xc05a21e0	-3.4083176
11	0xc0680452	-3.6252637
12	0xc0427d14	-3.0388842
13	0x407110a0	3.7666397
14	0x40786878	3.8813763
15	0x403bd541	2.934891
16	0x4012795e	2.2886577
17	0x40900581	4.500672
18	0x40765fc8	3.849596
19	0xc087c673	-4.2429748
