pretrained_model_ver2.pth (torch, 7848 bytes, 7 tensors)

fc1.weight f4 [20, 13]
000000 81 1b 8c 3e 88 8b e2 be 02 73 86 3e 79 dc c5 3e
       0.27364734 -0.4424708 0.2625962 0.3864477
000010 8d cf cb be fa 13 a2 3e 5f 0c 1e be 2b 65 0e be
       -0.39806786 0.31655866 -0.15434407 -0.1390578
000020 da 8e 74 be ed a5 b0 3c 98 7b 37 bf 29 f4 ed 3e
       -0.23882619 0.021563495 -0.71672964 0.46475342
000030 df 13 f4 be 69 d7 1a 3e 21 d6 bf be b7 31 c9 3e
       -0.4767141 0.15121235 -0.37468055 0.39295742
000040 db f0 38 be a8 fe 6f 3d 0f 09 89 bd dd d6 1d be
       -0.18060629 0.05859247 -0.06691181 -0.15413995
000050 03 a7 d1 be 20 47 29 be d0 b5 52 be d6 2c 82 bd
       -0.40947732 -0.16531038 -0.20577168 -0.06356208
000060 d1 8e 47 3f 73 6f 00 3f 14 cb db bd 60 2f 0a 3f
       0.77952296 0.5017006 -0.107320935 0.5397854
000070 c1 2d 54 be 83 bd cb 3e 50 02 30 bf ac c1 02 3d
       -0.20720579 0.39793023 -0.6875353 0.03192298
000080 0c 7b 03 be 8c 9f 86 3e fd 07 41 bd 79 5e f1 3d
       -0.12839907 0.262936 -0.04712676 0.11785597
000090 f4 fd c9 be af 67 19 bf 44 fe 36 bd 2b 6f 18 bf
       -0.39451563 -0.59923834 -0.04467608 -0.5954463
0000a0 c1 16 8a be 7c 9b 3f be 3f 6b 43 3e ea 9b be bd
       -0.26970485 -0.18711656 0.1908388 -0.09307082
0000b0 b4 58 0e 3f 51 d5 12 bd 54 26 f2 bd 84 c5 7b 3d
       0.556041 -0.035847966 -0.11823717 0.061467662
0000c0 d6 c9 1d 3e df 4b 56 be 9b 4f bd 3e 62 89 8d bf
       0.15409026 -0.2092738 0.36974797 -1.1057551
0000d0 47 a5 a9 be ec 02 4d 3e 0c 2c ba be 30 e8 19 bd
       -0.3313391 0.20020646 -0.3636173 -0.037574947
0000e0 fc 8c 13 3c c0 b8 a8 3e c5 59 85 bd 1e e4 a4 3e
       0.009005781 0.32953453 -0.06511263 0.3220529
0000f0 a6 d9 e6 be 16 c1 ec bd 77 d7 67 be d1 fd 59 3e
       -0.45087928 -0.11560266 -0.22640787 0.2128823
000100 2b f7 29 3e c6 32 31 3e 5d 84 90 3e 0e 28 8f 3e
       0.16598193 0.17304525 0.28225985 0.27960247
000110 62 a2 55 be bc 4e 4b 3e 51 12 c0 3d 9f b6 22 bf
       -0.20862725 0.19854254 0.093784936 -0.6355991
000120 2f 25 43 bb ff c1 bb be 72 29 15 bf 04 33 c4 be
       -0.0029776802 -0.36671445 -0.58266366 -0.38320172
000130 f5 52 df 3e 5f 2e 40 3d 12 ef 34 3d de ed ab be
       0.4361798 0.046919223 0.044173308 -0.33579916
000140 ec bd 10 3f 90 64 26 bd ee 59 85 bd 48 84 d8 bd
       0.565398 -0.040623248 -0.06511293 -0.10572106
000150 d9 f8 56 3d b3 21 52 be 22 dc a9 bd 6e b5 dd be
       0.052483413 -0.20520668 -0.0829394 -0.43302482
000160 06 78 e7 be b4 9d c7 be 32 17 bc bd 88 2a be bd
       -0.45208758 -0.38987505 -0.09184112 -0.09285456
000170 ea a8 ca 3e 60 25 f1 3e ff 02 b9 be 50 d4 fb bd
       0.39581996 0.47098827 -0.36135098 -0.12296355
000180 c4 c7 56 be 9a b9 11 be 0c d8 b5 be 8d 6a c6 be
       -0.20974642 -0.14230958 -0.35516393 -0.38753167
000190 e3 64 fc 3d df 4f 67 be ca 97 cd bd 24 f1 4b 3e
       0.1232393 -0.22589062 -0.10038717 0.19916207
0001a0 ec 0b 99 bd c9 e8 e5 bd 51 fa a1 3e 69 a0 c9 3e
       -0.07472977 -0.11226041 0.3163629 0.39380196
0001b0 2d 40 f8 3e 7d 2d 90 3d 34 92 87 be 61 8d 90 bc
       0.48486462 0.07039926 -0.26478732 -0.01764554
0001c0 39 23 7b be 14 05 73 be d9 6b be bd 5a 7f 0b be
       -0.24525155 -0.23732406 -0.09297914 -0.136228
0001d0 e6 f4 0e bf 0e c0 16 3c ae 9c 6e bc 49 f0 4d be
       -0.55842435 0.009201063 -0.014563723 -0.20111193
0001e0 0a 09 f7 bd bc 05 26 3d 57 84 82 3d 65 1d 08 be
       -0.12062271 0.040532812 0.06372898 -0.13292463
0001f0 6a d2 1f 3d f9 54 c9 bd 98 b4 a3 3e 0a db 92 bd
       0.039019026 -0.098306604 0.3197372 -0.07170685
000200 47 fe 23 bf 4b 04 28 bf 9d 3b 8c be 8f 02 d0 be
       -0.6405987 -0.6563155 -0.2738923 -0.40626952
000210 a0 83 23 bf 3e 09 4a be dc 4b 25 be 44 49 da bc
       -0.6387272 -0.19730088 -0.1614222 -0.026646264
000220 6f f7 b4 be bd 8b 97 bd 76 b9 aa 3d 7b a5 1c 3f
       -0.35345027 -0.073997 0.08336155 0.61190003
000230 60 23 06 3e dd 19 28 3e d2 21 d8 be f6 8c d5 3c
       0.13099432 0.16416116 -0.42213303 0.026068192
000240 a2 c1 b9 3e 57 ae bd be 77 16 2c bf 81 f2 49 be
       0.36280543 -0.37047073 -0.6722178 -0.19721414
000250 56 9c a0 be 09 07 2d bd b5 a3 e4 3e bb b6 a7 be
       -0.31369275 -0.042243037 0.4465615 -0.327566
000260 fc b1 db 3c ef b6 79 be e0 e0 8c 3e 4c 8b 38 be
       0.026818268 -0.2438619 0.27515316 -0.18021888
000270 02 d4 b2 be c9 c1 9f be 74 13 d8 3e be ae ca be
       -0.34927374 -0.31202534 0.42202342 -0.39586443
000280 21 86 11 be 3c 86 16 bf df 3a 8b be 26 84 73 3e
       -0.14211322 -0.58798575 -0.27193353 0.2378088
000290 7e 04 0c 3f b1 a2 a4 3d 2c 53 34 3f 81 b6 0c bf
       0.54694355 0.080388434 0.7043941 -0.5496598
0002a0 b5 07 a3 be b9 61 98 be d1 29 9b be 28 14 a4 3e
       -0.31841817 -0.29762056 -0.3030534 0.32046628
0002b0 47 12 82 3e c7 3a 8b 3e 60 ca 4c 3e 84 d5 8b 3e
       0.2540457 0.2719328 0.19999075 0.27311337
0002c0 d5 7f 43 3d 94 dd 28 bf e4 be 8d 3e 75 86 89 3d
       0.047729332 -0.659631 0.276847 0.06715099
0002d0 e5 f8 28 be 11 9d 27 bf 67 8a aa be 59 72 ad 3e
       -0.16501196 -0.6547404 -0.33308718 0.33876303
0002e0 a7 25 e4 be e8 af b6 bd 4d e9 7b be 9d 56 7b be
       -0.44559976 -0.0892027 -0.24600716 -0.24544759
0002f0 c7 62 f3 3d e3 e0 03 3f 81 e4 e0 3e dd eb d0 3e
       0.11884075 0.51515025 0.43924335 0.4080495
000300 73 0d 25 bd ee 48 12 bd 0c 58 a9 be 49 91 bd 3e
       -0.04029603 -0.035714082 -0.33074987 0.37024906
000310 df 97 9c be 69 f7 a2 3e 5c 43 e9 bd 47 1b 4d 3d
       -0.30584618 0.31829384 -0.11389801 0.05007484
000320 ed 71 a8 be 5d 25 3e 3c c7 87 da be be b8 c0 bd
       -0.32899418 0.011605588 -0.42681715 -0.09410237
000330 94 33 a6 be f3 1b f6 be 8f 4a b1 3c 7d dc da be
       -0.32461226 -0.480682 0.021641998 -0.42746344
000340 6b b9 15 3e 99 9f 65 bd 99 38 33 3e e2 4b 4e 3e
       0.14621513 -0.056060407 0.17502059 0.20146134
000350 6d 3d be 3e ad b0 31 3e 26 7f e8 bd f0 d6 99 3d
       0.3715624 0.17352553 -0.11352377 0.07511699
000360 cf b9 06 3f 19 a8 14 3f 19 e9 41 3e 54 a6 22 3d
       0.5262727 0.58068997 0.18936576 0.039709404
000370 be ac a7 be 1b 51 f7 be cc 42 80 be e4 a0 04 bc
       -0.3274898 -0.48304066 -0.25050962 -0.008095
000380 0e 8a 15 3e 69 cb 75 be 62 1a 8a 3e 50 12 2a 3f
       0.14603445 -0.24003376 0.26973253 0.6643419
000390 66 61 1d bf c7 6b 94 3e 5a 4e dc 3c d3 3a 9c be
       -0.61476743 0.28988478 0.02689283 -0.3051363
0003a0 1f eb 80 3e dc c8 00 bf 22 66 81 be 5a 46 8e 3e
       0.25179383 -0.5030649 -0.25273234 0.2778805
0003b0 3f 00 81 3f 6f a1 0a 3d 91 6d d9 3c 6f df 74 3e
       1.00782 0.03384536 0.026541503 0.23913358
0003c0 0d 04 11 3e 75 c0 7d be 8d 14 a4 be 6d ec 1a bf
       0.14161702 -0.24780448 -0.3204693 -0.6051701
0003d0 30 f5 9d be 16 39 ad 3e 09 bc 8d 3c 4d b2 cf be
       -0.30851126 0.33832616 0.017301576 -0.4056572
0003e0 74 d9 04 bd 8c 05 da 3d 34 39 e5 3e 4d 37 80 be
       -0.032433942 0.10645589 0.44770205 -0.2504219
0003f0 df c5 1d 3e 5f 69 ab be 41 f7 59 3d a0 e8 b7 3e
       0.15407513 -0.3347883 0.053214315 0.35919666

fc1.bias f4 [20]
000000 4f f0 a9 3e fd cf bb 3e c3 15 55 3e 04 43 c6 3e
       0.33191153 0.3668212 0.20809083 0.38723004
000010 6f 25 fc 3e 51 1f 05 3f ba 42 62 3e 33 3e 89 3e
       0.4924731 0.5200091 0.22095767 0.26805267
000020 66 bc b9 bd fe 93 a5 3e 6d a0 04 3f 79 8c 7e 3b
       -0.09069137 0.32339472 0.5180729 0.0038841052
000030 c8 8c a5 bc 86 11 82 3e 75 90 9d 3e 6c 6f 12 bd
       -0.020208731 0.25403994 0.30774274 -0.03575079
000040 bc d0 1f 3e 43 a0 b1 be 26 72 d2 3c 05 e1 07 be
       0.1560697 -0.34692582 0.025689196 -0.13269432

fc2.weight f4 [20, 20]
000000 48 f0 ae 3d b7 4d 53 bc e6 e0 14 be 2f 0d c7 bc
       0.08541924 -0.012896947 -0.14538917 -0.024298279
000010 8e 46 3b bd 64 da 56 be 54 43 26 bd b0 13 1b bd
       -0.045721583 -0.20981747 -0.040591553 -0.037860572
000020 9c 7b 3e bd 94 ae e2 bd ff 0f b1 bd 70 b8 30 be
       -0.0465046 -0.110684544 -0.08645629 -0.17257857
000030 79 88 bc bd a4 bf 2d be 48 ce 27 3d 02 f9 d5 3c
       -0.092057176 -0.16967636 0.04096821 0.026119713
000040 4b 07 fe 3d d8 cb 8c bd 1e d5 ed bd 45 ba a5 bd
       0.12403735 -0.068748176 -0.116129145 -0.08092169
000050 56 c7 ea 3e 78 32 26 bf dc c2 87 bd 6e 1b 99 bd
       0.45855206 -0.6492076 -0.06628963 -0.07475935
000060 c0 6f cc 3e 6a 14 4c 3e 1a e5 9b be 06 99 0b 3f
       0.39929008 0.19929662 -0.30448228 0.5453037
000070 ab b1 8d be 9c 52 e8 be 69 76 20 3f 7e 35 50 be
       -0.27674612 -0.45375526 0.6268068 -0.20332906
000080 c7 c3 31 bf 96 4b 75 be 6e b6 28 3f 91 dc 46 be
       -0.6943936 -0.23954615 0.65903366 -0.19420077
000090 3b 87 02 3f 86 b6 3f 3f 83 39 72 be 71 46 13 3d
       0.50987595 0.74887884 -0.23654751 0.03595585
0000a0 41 a1 f8 bd bc 65 a4 3e 0f 6a 8c 3e ce 74 99 3e
       -0.12140132 0.32108867 0.27424666 0.29971927
0000b0 72 b2 e9 be 98 c4 ed be a9 73 73 be 0a 81 a3 3e
       -0.45643955 -0.46439052 -0.2377459 0.31934386
0000c0 85 ec 39 3e af bc a8 3e 58 2b b4 3c bb 82 34 3e
       0.18156631 0.32956454 0.021993324 0.17627995
0000d0 37 d4 49 3e 99 8c bf 3c 6a c7 42 3d 75 c9 6f 3e
       0.1970986 0.023382472 0.047553457 0.23416694
0000e0 f6 4a f2 3d 18 d2 36 be 8c f3 f7 be 4d ba 65 3e
       0.11830704 -0.17853582 -0.48428 0.2243435
0000f0 4b d9 ba be 4c 13 26 be 10 7b 4c 3e 94 de 03 3d
       -0.36493906 -0.16218299 0.1996882 0.03219469
000100 ee 22 9b 3e ce 4a a1 3e 6d 0c 98 be eb c8 ba 3d
       0.30300087 0.31502384 -0.2969698 0.09120353
000110 14 88 86 3e a8 e1 2f bd d5 41 05 be 06 c4 aa 3e
       0.26275694 -0.042939812 -0.13013394 0.3335268
000120 f6 86 fb bc 98 38 eb be 95 9a 94 bb 67 09 41 3e
       -0.030704003 -0.45941615 -0.004535029 0.18851243
000130 73 33 a4 3c cc f0 48 3d e7 4a 70 3e 72 8a 07 3f
       0.020044064 0.049057767 0.23466073 0.52945626
000140 d4 fd a7 be 5b 81 a6 3c c4 f6 5a be 73 ea 15 be
       -0.32810843 0.020325353 -0.21383196 -0.14640217
000150 66 92 3b be 4c 19 ca 3c 77 cb 1f be 66 01 2a 3e
       -0.18317565 0.024670266 -0.1560496 0.16602096
000160 1c 54 01 3e 85 7e ff bd 38 f5 1e be 25 44 a5 3e
       0.12629741 -0.124753036 -0.15523231 0.32278553
000170 68 1b b8 bc e9 3b c8 be e5 f0 b3 bd 30 40 37 3e
       -0.022474006 -0.39108208 -0.08786181 0.1789558
000180 69 12 85 3e a5 ea ab 3e 55 ec 32 3e b8 78 8f bd
       0.25990608 0.33577457 0.17472966 -0.07005447
000190 8b c0 09 3f 4c 4b 92 3e 7c 3f 78 3f 3d 34 9d 3f
       0.5380942 0.28573072 0.9697187 1.2281567
0001a0 74 bd 3b bd fe a3 5c be 83 da 19 bf 62 d2 82 be
       -0.045834973 -0.21546933 -0.6009905 -0.25551134
0001b0 4e d8 63 3e 39 aa 20 3f 7a 52 1d bf 4c 12 0c 3f
       0.22250482 0.6275974 -0.61453974 0.5471542
0001c0 fb 78 1f 3f 15 36 7f 3e 6b 28 9b be b2 02 ba 3e
       0.62293977 0.24922974 -0.30304274 0.3633018
0001d0 64 96 70 be 0a e4 0e bf e3 9e 37 bf 48 97 b6 bd
       -0.2349487 -0.5581671 -0.71726817 -0.08915573
0001e0 5e 18 ac 3d 68 64 33 3e 1f 21 23 3d 5e 99 93 be
       0.08403085 0.1751877 0.03982651 -0.28827947
0001f0 bc 7c 4b bd 2a 2e 91 3e 4e bc 99 bd ba ff 64 3b
       -0.049679503 0.28355533 -0.075066194 0.0034942464
000200 fb e5 07 be cd 61 d9 bd 98 c7 36 3e 8a 7e 84 be
       -0.13271324 -0.10614357 0.17849576 -0.25877792
000210 58 1d bb 3e f0 13 bd 3e 99 fe 2a 3d 4c 5b 9c be
       0.36545825 0.36929274 0.04174671 -0.30538404
000220 4d 68 84 be 8e 15 60 bd 73 b0 c1 bd cd 55 b0 bd
       -0.25860825 -0.054708056 -0.09457483 -0.08610115
000230 de 2e 28 3f 3b 89 0c bf ac c2 e9 bd cd 1c a5 3d
       0.65696514 -0.548969 -0.11414084 0.08062134
000240 9e 55 14 3f 9f 45 1a 3f 86 8a 80 be dd 18 92 3e
       0.5794314 0.60262483 -0.25105685 0.28534594
000250 a8 95 7c be c4 a2 cb be cc fc ac 3e a1 8a ce be
       -0.24666464 -0.39772618 0.3378662 -0.4034014
000260 cd ed 24 bf b6 15 fa be 57 31 11 3f 2f de df be
       -0.64425355 -0.4884469 0.5671591 -0.437242
000270 f2 b8 0d 3f 80 f5 13 3f a4 be 41 bf b0 46 ac 3d
       0.5536033 0.5779648 -0.7568152 0.0841192
000280 0d 93 23 be 7b 67 cd 3e 3f 68 76 bd 11 b4 2a 3e
       -0.15974064 0.40118012 -0.06015801 0.16670252
000290 07 c9 0b be ba a2 e3 be bf 31 8a be 27 a7 c9 be
       -0.13650905 -0.44460088 -0.26991078 -0.3938534
0002a0 87 9d 21 be f7 ae 81 3e b5 2e 9e bc 50 b1 c6 3e
       -0.15782748 0.253288 -0.019309381 0.38807154
0002b0 62 84 94 3d 7c 23 dd 3c 94 e5 bf 3d 51 e2 06 3e
       0.072518125 0.02699446 0.093699604 0.1317227
0002c0 8a ae 53 3e a8 30 44 be cb ec 54 be 75 58 9e bd
       0.2067205 -0.19159186 -0.20793454 -0.077317156
0002d0 35 9c 74 bc 1a c1 00 be 4f bc 2f be 0b fc 02 3d
       -0.014929821 -0.12573662 -0.17161678 0.03197865
0002e0 40 6b 3a be b6 4e 18 3e f0 89 97 bd aa 6b a6 3e
       -0.18204975 0.14873776 -0.07399356 0.32504016
0002f0 c3 b3 a8 3b fa e4 03 be db 42 69 be 5c 28 0a 3e
       0.0051483824 -0.12880316 -0.2277941 0.13491958
000300 dd f8 20 be 9c 16 1d be ca ab 9d 3d 62 8b dd 3d
       -0.15719934 -0.15340656 0.07698782 0.10817601
000310 47 ab 7d 3e f7 65 2f be 52 d2 18 3e 6f ca e2 3d
       0.24772368 -0.1712874 0.14923981 0.110737674
000320 e8 fe a8 3d 03 52 8c bd db 17 0a 3e 8d 4e 4a 3d
       0.082517445 -0.0685158 0.13485663 0.049391318
000330 6b 03 d8 bd 4c dd 2b 3e 3e c3 d1 bc 0c 04 1e be
       -0.10547527 0.16783637 -0.025605794 -0.15431231
000340 67 ca fe 3d c3 ec ad 3d 3e 8a e3 bd 3e 21 83 3d
       0.12440949 0.08492424 -0.11110352 0.06402825
000350 83 b9 51 be 0c a8 aa 3d 93 95 46 3e f7 49 4e 3e
       -0.20480923 0.08332834 0.19392996 0.20145403
000360 d6 e2 54 be 14 d7 42 be b5 b1 81 3e 48 30 c2 bd
       -0.20789656 -0.19027358 0.25330892 -0.09481865
000370 8e 59 1f bf 71 af 8f 3e 99 09 c7 bd 2d c5 df 3e
       -0.62246025 0.2806354 -0.097186275 0.4370512
000380 c4 8e 44 3d 4b 0a 35 3e 90 8a 07 be d7 98 15 bd
       0.047987714 0.17679708 -0.13236451 -0.036522713
000390 c4 ab a4 bd 32 1b b4 3e 75 93 05 be a8 4b b5 3e
       -0.08040574 0.35176998 -0.13044532 0.35409284
0003a0 37 bb 2b 3e bb 5a 16 bf b7 3b 19 be 23 41 c2 3c
       0.16770636 -0.58732194 -0.14964186 0.0237127
0003b0 24 4b c6 bd a2 f0 22 3e 77 d5 c1 3e 4d ac 07 3f
       -0.09682301 0.15912107 0.37858173 0.52997285
0003c0 c5 32 f5 bc bf b1 d6 bd 31 83 a5 3e 30 8e 98 bd
       -0.029931435 -0.10483121 0.32326654 -0.07448995
0003d0 ab 3d 0b 3d 5d 32 5b 3d bf 0c 4a ba de 1c 1c be
       0.033994358 0.053514827 -0.0007707588 -0.15245387
0003e0 68 06 e0 bb ad 04 97 be 2c 73 54 be 9c 7e ad bd
       -0.006836701 -0.29495755 -0.2074706 -0.084714144
0003f0 70 bd cb 3d fd 6b db 3d bf 97 c9 bd bf 3e 8c 3d
       0.09948242 0.107139565 -0.098433964 0.06847905

fc2.bias f4 [20]
000000 e7 10 8c 3c de 19 6e 3d c4 ea 20 3e bb fc bf bd
       0.017097903 0.058130138 0.15714556 -0.093743764
000010 30 67 0d 3d 54 e0 45 3c cd 1b 11 bd 4a d6 70 3e
       0.034522235 0.01207741 -0.035426904 0.23519245
000020 88 4e 08 3f 1a dd 1e be 31 0f 45 be 66 dc f2 3d
       0.5324483 -0.15514031 -0.19244076 0.11858444
000030 86 79 53 bd ef 6d b6 3d fc 74 6a be 7c 59 2a 3e
       -0.051629566 0.08907687 -0.22896188 0.16635698
000040 99 28 a9 3e 31 54 92 3e e0 a8 24 be e5 0c 07 3e
       0.33038786 0.28579858 -0.16080046 0.13188513

fc3.weight f4 [20, 20]
000000 5c ff 1f be 32 0a 87 3f 23 b8 eb be 80 d5 d9 be
       -0.15624756 1.0549986 -0.46038923 -0.425457
000010 c9 b2 84 be 7d 25 52 bf 65 1c a0 3e 48 35 96 3f
       -0.25917652 -0.8208845 0.31271663 1.173501
000020 d0 5e b0 be db 69 30 bb 77 37 96 be 71 7a d3 be
       -0.34447336 -0.0026918564 -0.2933919 -0.41304353
000030 3a 99 dd bc cd 20 19 bc 3f af 53 bd ff e7 1c 3f
       -0.027050603 -0.009346199 -0.0516808 0.612915
000040 bd a4 04 3f ef e2 ad 3e aa 63 92 3e 1d c7 1b 3f
       0.5181387 0.339622 0.28591663 0.608507
000050 a9 41 48 3d 85 57 f5 bd 8a e1 ce bb 04 53 c5 3d
       0.048890743 -0.11979584 -0.0063135074 0.096349746
000060 cc 81 b1 3d cb 4f 69 3e 15 4e 65 be 8d 56 42 3c
       0.08667335 0.22784345 -0.22393067 0.011861456
000070 72 89 f0 bc a1 c2 cb bd d9 a7 37 3e 61 ac 24 3e
       -0.029362414 -0.09949232 0.17935123 0.16081382
000080 99 25 84 bd d9 79 47 bd 02 13 21 be e9 15 b1 39
       -0.06452484 -0.048700187 -0.15729907 0.00033776395
000090 7f f0 af 3d 5e 0a 0a 3e 44 a4 4e 3e 7b 47 04 3e
       0.08590793 0.13480517 0.2017985 0.12917893
0000a0 b8 b3 2d bb b8 24 2b be 60 2a f7 3d 7a 3d 5d bd
       -0.0026504826 -0.16713226 0.12068629 -0.054013707
0000b0 1d 80 81 bd 98 3c c8 3d 7e e8 40 3e 30 db 4f be
       -0.06323264 0.09777182 0.18838689 -0.20298457
0000c0 7d 1f de 3c 0b b6 3f 3e 15 78 8c bd 33 1e 3d 3e
       0.027114624 0.18721788 -0.06858841 0.18468551
0000d0 62 8b 53 be af 78 2e be 13 53 29 3e e4 64 06 3e
       -0.20658639 -0.17038225 0.16535597 0.13124424
0000e0 25 4a 37 3e 9a 81 41 be 81 ac 39 be 8c 5a d8 bd
       0.17899378 -0.18897095 -0.18132211 -0.105641454
0000f0 aa 58 d7 bd 69 9d 34 3e 12 3d 8a 3d c1 a6 3f 3e
       -0.10514958 0.17638172 0.067499295 0.18715955
000100 09 3a 7a be dd 25 79 be 46 12 87 bb fa 7d b1 3d
       -0.24436201 -0.2433085 -0.0041220514 0.08666606
000110 c5 9e 38 3c a2 21 3e be 0e 02 1c be bb d2 93 bd
       0.011268322 -0.18567517 -0.15235159 -0.07217928
000120 22 ff d8 bd 2e a3 13 3e b2 15 3c 3e 3d de 18 bd
       -0.10595538 0.14417717 0.18367651 -0.037321318
000130 9e ad 69 3e 26 13 84 bd 51 61 38 3e ad 1d 4a bd
       0.22820136 -0.06448965 0.18005873 -0.049344707
000140 eb 1d 19 3e b7 63 e6 be 33 f6 1c 3f 6e d5 17 3f
       0.14952819 -0.4499795 0.6131317 0.5931004
000150 0c 2a 9a 3e cd df 8d 3f 8f 1c 84 be 8a cc 2a bf
       0.30110204 1.1083924 -0.25803038 -0.6671835
000160 ab ee d9 3e 0c ea 66 3e ec 2a ed bd 9e 41 16 3f
       0.42564902 0.2255022 -0.11580452 0.58693874
000170 6f 97 24 be b5 e7 0a be 76 ee 3e bd 12 f3 1f be
       -0.16073392 -0.13564952 -0.046614133 -0.15620068
000180 81 68 e3 be 1d 93 27 be c8 4f 7d be 6b 6f 2e be
       -0.44415668 -0.16364713 -0.24737465 -0.1703469
000190 f5 b3 76 bc f3 27 ce 3d 31 b8 a6 bd 87 33 d3 3d
       -0.015057554 0.100662135 -0.081406005 0.103125624
0001a0 24 bf e7 3d 20 c1 23 3e 46 05 1e bb f5 4d bf bc
       0.11315754 0.1599164 -0.002411203 -0.023352602
0001b0 21 87 b1 3d c1 9a bb bc 1f 74 61 3d f9 54 40 be
       0.08668352 -0.02290094 0.055042382 -0.18782414
0001c0 f7 f4 2e be 4b 54 ca bd 40 91 ca bd 6d d5 45 be
       -0.17085634 -0.09879359 -0.098909855 -0.19319697
0001d0 91 91 21 3e 35 d0 07 be a2 0a 87 bd fd ed 82 3d
       0.15778185 -0.13263018 -0.06593825 0.06393049
0001e0 73 9f fb bb c3 dc 37 bf 89 0f 01 3f 43 46 98 3e
       -0.00767892 -0.7182123 0.5041433 0.29741105
0001f0 39 41 7c 3e 7c 01 9f 3f a1 14 02 bf d0 c0 2f bf
       0.24634255 1.2422328 -0.5081273 -0.68653584
000200 ba 25 ef 3e 0a bf c0 3e b0 3b 04 3e 3a a3 00 3f
       0.4670847 0.3764575 0.12913394 0.50249064
000210 e7 53 a8 be 76 60 92 be 90 14 d6 3b a5 2b ac be
       -0.32876512 -0.2858922 0.006533213 -0.33627048
000220 cd 1e 14 be 1e c7 02 bf 0d cb 6c be a2 44 2c be
       -0.14464875 -0.5108508 -0.23124333 -0.16823056
000230 f5 cc b1 3d 99 ce c9 be 1a 5a ba 3e b5 8b 54 3d
       0.086816706 -0.39415434 0.36396867 0.051891048
000240 92 fe 9d 3e 95 0f 2b 3f 68 ec 92 be 8a d5 d7 be
       0.30858284 0.6682065 -0.2869599 -0.42155105
000250 25 21 b6 3e f8 f6 92 3d e2 27 85 3c 02 6d c7 3e
       0.35572162 0.07176012 0.01625437 0.38950354
000260 36 ad 8c be f0 07 2e 3d 70 c4 6e be f0 01 0f be
       -0.274759 0.04248804 -0.23317122 -0.13965583
000270 ae 05 d4 bd c1 53 c0 bd 28 33 78 be 4d 08 94 3d
       -0.10352646 -0.09390975 -0.24238265 0.07228146
000280 77 ed 86 3d cb be 04 be 84 9f 34 3e 63 cc 21 3e
       0.065882616 -0.12963407 0.17638975 0.15800624
000290 95 83 31 3e 1c ad e4 3e 02 c9 16 be 21 ed 68 be
       0.17335351 0.44663322 -0.14725116 -0.22746707
0002a0 a9 c6 d9 3e 35 36 8d 3c 42 32 de bd 54 6d b4 3e
       0.42534378 0.017237762 -0.1084943 0.3523966
0002b0 71 f0 23 be 3e 23 25 be c3 9d a1 3d 45 13 45 be
       -0.1600969 -0.16126725 0.07891419 -0.19245632
0002c0 bc fb 83 be bd b8 8a 3d 3d f4 ff 3d 67 ff 44 be
       -0.25777996 0.06773517 0.12497757 -0.19238053
0002d0 40 66 5a 3d 5c 40 8a bc b3 f2 30 be bd 7c 8c bd
       0.05332017 -0.016876392 -0.17280082 -0.068597294
0002e0 14 96 47 3e 72 78 18 3c 12 6e 09 bd 19 2c 2a 3b
       0.19490844 0.00930606 -0.033552237 0.0025966226
0002f0 cd 57 0d be b6 28 03 3d 98 14 89 3d 59 ab 84 3d
       -0.13803025 0.032021247 0.06693381 0.064779945
000300 fb 3d 01 be 85 ee 30 be 4e d4 05 3d 93 4b e3 bd
       -0.126213 -0.17278488 0.032673173 -0.11098399
000310 4b 08 86 bd 8d 82 1c be 57 25 30 3e 70 c7 dd 3d
       -0.065445505 -0.15284176 0.17201744 0.10829055
000320 5d c6 fe 3d c0 d2 ce 3e 91 e4 1b bd e7 63 0c bb
       0.124401785 0.40395164 -0.038059775 -0.002142185
000330 a8 f2 85 bd 5d 6a 89 bd 93 86 e0 bd d1 df da 3e
       -0.06540424 -0.0670974 -0.10963168 0.42748883
000340 9f 52 93 bd ac b4 db 3c c8 32 10 bc 7d 10 6d be
       -0.07193493 0.02681955 -0.00880117 -0.23150821
000350 82 32 1e be c8 99 b7 3d 40 6b 3f 3e 0b d5 49 3d
       -0.15448955 0.08964878 0.18693256 0.04927544
000360 d4 55 a2 3e 35 6c 95 3e 4f d7 c4 3d 6d aa a7 3d
       0.31706107 0.29184118 0.09611379 0.08186803
000370 5c 57 52 be 5d 44 14 3e 7d 74 e2 bd 78 a8 cf 3c
       -0.20541137 0.14479204 -0.110573746 0.025348887
000380 f8 52 0f 3c 02 d8 fc bd 4e 12 96 3d 35 16 03 bd
       0.008747809 -0.12345888 0.0732771 -0.0320036
000390 38 98 d6 bd 37 6c b3 3d f3 fb 2e 3e aa 26 4e be
       -0.10478252 0.08760875 0.17088298 -0.20131937
0003a0 bf 5c 0a 3e 4f a1 20 be f9 18 51 be f7 7e 70 3c
       0.13511942 -0.15686534 -0.20419683 0.014678708
0003b0 3b 47 5a 3d 9e cc 14 3e 02 a1 97 3d 07 34 e9 bd
       0.053290587 0.1453118 0.07403757 -0.113868766
0003c0 d2 34 a9 bc 99 31 87 3f 7d 2a 5b be 20 30 d5 be
       -0.02065507 1.0562011 -0.21402927 -0.4163828
0003d0 2f bd 6f be 25 e7 34 bf 80 a6 9f 3d ce 4f 80 3f
       -0.23412012 -0.706652 0.07795429 1.0024354
0003e0 ce 60 ad be 57 7d 0b be 09 fc 83 bd 42 81 d3 be
       -0.3386292 -0.13622032 -0.06444556 -0.41309553
0003f0 99 92 3c be c5 a4 85 bd ec d6 ec bd c5 fd bf 3e
       -0.18415298 -0.06525568 -0.115644306 0.37498298

fc3.bias f4 [20]
000000 32 f9 ad 3e 96 55 65 bd e7 5c 36 be a2 ef bb 3d
       0.33979183 -0.055989824 -0.17808877 0.09176566
000010 e4 ab c8 3e e8 8c 45 be 31 c2 ff 3e 92 0b 3b 3e
       0.39193642 -0.19292033 0.49952844 0.18266132
000020 a9 3d a8 3e 13 86 79 bd 56 f7 a7 3d 4f a9 53 be
       0.32859543 -0.06091888 0.082014725 -0.20670055
000030 35 9d 53 3e 98 6c a8 bd bc 7f f5 bc 45 bd 2b bc
       0.20665438 -0.082238376 -0.029968135 -0.010482137
000040 2a 9d b1 3e ac 46 74 bd 42 be 51 3e a4 45 2d 3d
       0.3469022 -0.05963771 0.20482734 0.042302743

fc4.weight f4 [1, 20]
000000 90 bc 11 c0 28 1d 27 3e 3a 4a fc 3d 8a c8 b0 be
       -2.277134 0.16319716 0.12318845 -0.34528
000010 b6 fb f3 3f ab 73 20 3e 90 d2 06 40 c3 ad 94 3f
       1.9061191 0.15669124 2.1066017 1.1615528
000020 08 f5 5d 3f 0f 43 68 bd 70 16 1f bf 05 ac b3 bd
       0.86702013 -0.056704577 -0.6214361 -0.087730445
000030 5c 2e 0a c0 5f 85 0c 3e 7f 0d e7 3e 55 ba 4f 3e
       -2.1590796 0.13722752 0.45127484 0.20285924
000040 b3 f0 9c 3f db 5e 48 bd fd d3 b6 bf 69 b4 46 3e
       1.2260956 -0.048918586 -1.4283444 0.19404759
